Model:
network(
  (lstm): LSTM(300, 300, num_layers=2, batch_first=True, dropout=0.1)
  (fc1): Linear(in_features=300, out_features=300, bias=True)
  (fc2): Linear(in_features=300, out_features=50, bias=True)
  (fc3): Linear(in_features=50, out_features=5, bias=True)
  (act): Tanh()
  (sm): Softmax(dim=1)
  (dropout): Dropout(p=0.1, inplace=False)
)
Results:

Correct predictions: 33.81%
One star away: 36.63%
Two stars away: 19.50%
Three stars away: 6.85%
Four stars away: 3.21%

Weighted score: 48.46
=======
Model:
network(
  (lstm): LSTM(300, 300, num_layers=2, batch_first=True, dropout=0.1)
  (fc1): Linear(in_features=300, out_features=300, bias=True)
  (fc2): Linear(in_features=300, out_features=50, bias=True)
  (fc3): Linear(in_features=50, out_features=5, bias=True)
  (act): Tanh()
  (sm): Softmax(dim=1)
  (dropout): Dropout(p=0.1, inplace=False)
)
Results:

Correct predictions: 42.25%
One star away: 39.95%
Two stars away: 12.31%
Three stars away: 3.72%
Four stars away: 1.77%

Weighted score: 58.23
===========
Model:
network(
  (lstm): LSTM(300, 625, num_layers=2, batch_first=True)
  (fc1): Linear(in_features=625, out_features=125, bias=True)
  (r1): ReLU()
  (fc2): Linear(in_features=125, out_features=25, bias=True)
  (r2): ReLU()
  (fc3): Linear(in_features=25, out_features=5, bias=True)
  (sm): Softmax(dim=None)
)

Epochs: 10

Optimiser: Adam (
Parameter Group 0
    amsgrad: False
    betas: (0.9, 0.999)
    eps: 1e-08
    lr: 0.0001
    weight_decay: 0
)

Results:

Correct predictions: 39.54%
One star away: 36.31%
Two stars away: 14.07%
Three stars away: 6.39%
Four stars away: 3.69%

Weighted score: 54.06
===========
Model:
network(
  (lstm): LSTM(300, 625, num_layers=2, batch_first=True)
  (fc1): Linear(in_features=625, out_features=125, bias=True)
  (r1): ReLU()
  (fc2): Linear(in_features=125, out_features=25, bias=True)
  (r2): ReLU()
  (fc3): Linear(in_features=25, out_features=5, bias=True)
  (sm): Softmax(dim=None)
)

Epochs: 10
Word vec dim: 300

Optimiser: Adam (
Parameter Group 0
    amsgrad: False
    betas: (0.9, 0.999)
    eps: 1e-08
    lr: 0.001
    weight_decay: 0
)

Results:

Correct predictions: 42.01%
One star away: 40.64%
Two stars away: 12.51%
Three stars away: 3.48%
Four stars away: 1.36%

Weighted score: 58.27
…
